…
I0607 17:39:41.093016 13702 solver.cpp:86] Creating training net from train_net file: fcn_train.prototxt
I0607 17:39:41.094027 13702 net.cpp:50] Initializing net from parameters: 
name: "FCN"
force_backward: true
state {
  phase: TRAIN
}
layer {
  name: "data"
  type: "Data"
  top: "data"
  transform_param {
    mirror: false
    crop_size: 0
    mean_value: 77
  }
  data_param {
    source: "train_images_lmdb/"
    batch_size: 1
    backend: LMDB
  }
}
layer {
  name: "label"
  type: "Data"
  top: "label"
  data_param {
    source: "train_labels_lmdb/"
    batch_size: 1
    backend: LMDB
  }
}
layer {
  name: "conv1"
  type: "Convolution"
  bottom: "data"
  top: "conv1"
  param {
    lr_mult: 1
    decay_mult: 1
  }
  param {
    lr_mult: 2
    decay_mult: 0
  }
  convolution_param {
    num_output: 100
    pad: 50
    kernel_size: 5
    group: 1
    stride: 2
    weight_filler {
      type: "gaussian"
      mean: 0
      std: 0.01
    }
    bias_filler {
      type: "constant"
      value: 0.1
    }
  }
}
layer {
  name: "relu1"
  type: "ReLU"
  bottom: "conv1"
  top: "conv1"
}
layer {
  name: "pool1"
  type: "Pooling"
  bottom: "conv1"
  top: "pool1"
  pooling_param {
    pool: MAX
    kernel_size: 2
    stride: 2
  }
}
layer {
  name: "conv2"
  type: "Convolution"
  bottom: "pool1"
  top: "conv2"
  param {
    lr_mult: 1
    decay_mult: 1
  }
  param {
    lr_mult: 2
    decay_mult: 0
  }
  convolution_param {
    num_output: 200
    pad: 0
    kernel_size: 5
    group: 1
    stride: 2
    weight_filler {
      type: "gaussian"
      mean: 0
      std: 0.01
    }
    bias_filler {
      type: "constant"
      value: 0.1
    }
  }
}
layer {
  name: "relu2"
  type: "ReLU"
  bottom: "conv2"
  top: "conv2"
}
layer {
  name: "pool2"
  type: "Pooling"
  bottom: "conv2"
  top: "pool2"
  pooling_param {
    pool: MAX
    kernel_size: 2
    stride: 2
  }
}
layer {
  name: "conv3"
  type: "Convolution"
  bottom: "pool2"
  top: "conv3"
  param {
    lr_mult: 1
    decay_mult: 1
  }
  param {
    lr_mult: 2
    decay_mult: 0
  }
  convolution_param {
    num_output: 300
    pad: 0
    kernel_size: 3
    group: 1
    stride: 1
    weight_filler {
      type: "gaussian"
      mean: 0
      std: 0.01
    }
    bias_filler {
      type: "constant"
      value: 0.1
    }
  }
}
layer {
  name: "relu3"
  type: "ReLU"
  bottom: "conv3"
  top: "conv3"
}
layer {
  name: "conv4"
  type: "Convolution"
  bottom: "conv3"
  top: "conv4"
  param {
    lr_mult: 1
    decay_mult: 1
  }
  param {
    lr_mult: 2
    decay_mult: 0
  }
  convolution_param {
    num_output: 300
    pad: 0
    kernel_size: 3
    group: 1
    stride: 1
    weight_filler {
      type: "gaussian"
      mean: 0
      std: 0.01
    }
    bias_filler {
      type: "constant"
      value: 0.1
    }
  }
}
layer {
  name: "relu4"
  type: "ReLU"
  bottom: "conv4"
  top: "conv4"
}
layer {
  name: "drop"
  type: "Dropout"
  bottom: "conv4"
  top: "conv4"
  dropout_param {
    dropout_ratio: 0.1
  }
}
layer {
  name: "score_classes"
  type: "Convolution"
  bottom: "conv4"
  top: "score_classes"
  param {
    lr_mult: 1
    decay_mult: 1
  }
  param {
    lr_mult: 2
    decay_mult: 0
  }
  convolution_param {
    num_output: 2
    pad: 0
    kernel_size: 1
    group: 1
    stride: 1
    weight_filler {
      type: "gaussian"
      mean: 0
      std: 0.01
    }
    bias_filler {
      type: "constant"
      value: 0.1
    }
  }
}
layer {
  name: "upscore"
  type: "Deconvolution"
  bottom: "score_classes"
  top: "upscore"
  param {
    lr_mult: 1
    decay_mult: 1
  }
  param {
    lr_mult: 2
    decay_mult: 0
  }
  convolution_param {
    num_output: 2
    bias_term: true
    pad: 8
    kernel_size: 31
    stride: 16
    weight_filler {
      type: "bilinear"
    }
    bias_filler {
      type: "constant"
      value: 0.1
    }
  }
}
layer {
  name: "score"
  type: "Crop"
  bottom: "upscore"
  bottom: "data"
  top: "score"
}
layer {
  name: "loss"
  type: "SoftmaxWithLoss"
  bottom: "score"
  bottom: "label"
  top: "loss"
  loss_param {
    normalize: true
  }
}
I0607 17:39:41.094218 13702 layer_factory.hpp:76] Creating layer data
I0607 17:39:41.094344 13702 net.cpp:111] Creating Layer data
I0607 17:39:41.094370 13702 net.cpp:434] data -> data
I0607 17:39:41.095181 13712 db_lmdb.cpp:22] Opened lmdb train_images_lmdb/
I0607 17:39:41.095569 13702 data_layer.cpp:44] output data size: 1,1,256,256
I0607 17:39:41.105348 13702 net.cpp:156] Setting up data
I0607 17:39:41.105407 13702 net.cpp:164] Top shape: 1 1 256 256 (65536)
I0607 17:39:41.105428 13702 layer_factory.hpp:76] Creating layer data_data_0_split
I0607 17:39:41.105453 13702 net.cpp:111] Creating Layer data_data_0_split
I0607 17:39:41.105469 13702 net.cpp:478] data_data_0_split <- data
I0607 17:39:41.105489 13702 net.cpp:434] data_data_0_split -> data_data_0_split_0
I0607 17:39:41.105511 13702 net.cpp:434] data_data_0_split -> data_data_0_split_1
I0607 17:39:41.105537 13702 net.cpp:156] Setting up data_data_0_split
I0607 17:39:41.105554 13702 net.cpp:164] Top shape: 1 1 256 256 (65536)
I0607 17:39:41.105568 13702 net.cpp:164] Top shape: 1 1 256 256 (65536)
I0607 17:39:41.105581 13702 layer_factory.hpp:76] Creating layer label
I0607 17:39:41.105666 13702 net.cpp:111] Creating Layer label
I0607 17:39:41.105685 13702 net.cpp:434] label -> label
I0607 17:39:41.106601 13714 db_lmdb.cpp:22] Opened lmdb train_labels_lmdb/
I0607 17:39:41.106719 13702 data_layer.cpp:44] output data size: 1,1,256,256
I0607 17:39:41.107815 13702 net.cpp:156] Setting up label
I0607 17:39:41.107841 13702 net.cpp:164] Top shape: 1 1 256 256 (65536)
I0607 17:39:41.107856 13702 layer_factory.hpp:76] Creating layer conv1
I0607 17:39:41.107880 13702 net.cpp:111] Creating Layer conv1
I0607 17:39:41.107893 13702 net.cpp:478] conv1 <- data_data_0_split_0
I0607 17:39:41.107920 13702 net.cpp:434] conv1 -> conv1
I0607 17:39:41.109063 13702 net.cpp:156] Setting up conv1
I0607 17:39:41.109086 13702 net.cpp:164] Top shape: 1 100 176 176 (3097600)
I0607 17:39:41.109117 13702 layer_factory.hpp:76] Creating layer relu1
I0607 17:39:41.109138 13702 net.cpp:111] Creating Layer relu1
I0607 17:39:41.109149 13702 net.cpp:478] relu1 <- conv1
I0607 17:39:41.109165 13702 net.cpp:420] relu1 -> conv1 (in-place)
I0607 17:39:41.109184 13702 net.cpp:156] Setting up relu1
I0607 17:39:41.109199 13702 net.cpp:164] Top shape: 1 100 176 176 (3097600)
I0607 17:39:41.109210 13702 layer_factory.hpp:76] Creating layer pool1
I0607 17:39:41.109225 13702 net.cpp:111] Creating Layer pool1
I0607 17:39:41.109236 13702 net.cpp:478] pool1 <- conv1
I0607 17:39:41.109248 13702 net.cpp:434] pool1 -> pool1
I0607 17:39:41.109282 13702 net.cpp:156] Setting up pool1
I0607 17:39:41.109298 13702 net.cpp:164] Top shape: 1 100 88 88 (774400)
I0607 17:39:41.109309 13702 layer_factory.hpp:76] Creating layer conv2
I0607 17:39:41.109333 13702 net.cpp:111] Creating Layer conv2
I0607 17:39:41.109346 13702 net.cpp:478] conv2 <- pool1
I0607 17:39:41.109361 13702 net.cpp:434] conv2 -> conv2
I0607 17:39:41.127701 13702 net.cpp:156] Setting up conv2
I0607 17:39:41.127748 13702 net.cpp:164] Top shape: 1 200 42 42 (352800)
I0607 17:39:41.127774 13702 layer_factory.hpp:76] Creating layer relu2
I0607 17:39:41.127791 13702 net.cpp:111] Creating Layer relu2
I0607 17:39:41.127802 13702 net.cpp:478] relu2 <- conv2
I0607 17:39:41.127818 13702 net.cpp:420] relu2 -> conv2 (in-place)
I0607 17:39:41.127836 13702 net.cpp:156] Setting up relu2
I0607 17:39:41.127848 13702 net.cpp:164] Top shape: 1 200 42 42 (352800)
I0607 17:39:41.127858 13702 layer_factory.hpp:76] Creating layer pool2
I0607 17:39:41.127873 13702 net.cpp:111] Creating Layer pool2
I0607 17:39:41.127883 13702 net.cpp:478] pool2 <- conv2
I0607 17:39:41.127905 13702 net.cpp:434] pool2 -> pool2
I0607 17:39:41.127934 13702 net.cpp:156] Setting up pool2
I0607 17:39:41.127948 13702 net.cpp:164] Top shape: 1 200 21 21 (88200)
I0607 17:39:41.127959 13702 layer_factory.hpp:76] Creating layer conv3
I0607 17:39:41.127976 13702 net.cpp:111] Creating Layer conv3
I0607 17:39:41.127986 13702 net.cpp:478] conv3 <- pool2
I0607 17:39:41.127998 13702 net.cpp:434] conv3 -> conv3
I0607 17:39:41.147974 13702 net.cpp:156] Setting up conv3
I0607 17:39:41.148015 13702 net.cpp:164] Top shape: 1 300 19 19 (108300)
I0607 17:39:41.148046 13702 layer_factory.hpp:76] Creating layer relu3
I0607 17:39:41.148067 13702 net.cpp:111] Creating Layer relu3
I0607 17:39:41.148082 13702 net.cpp:478] relu3 <- conv3
I0607 17:39:41.148102 13702 net.cpp:420] relu3 -> conv3 (in-place)
I0607 17:39:41.148123 13702 net.cpp:156] Setting up relu3
I0607 17:39:41.148138 13702 net.cpp:164] Top shape: 1 300 19 19 (108300)
I0607 17:39:41.148149 13702 layer_factory.hpp:76] Creating layer conv4
I0607 17:39:41.148165 13702 net.cpp:111] Creating Layer conv4
I0607 17:39:41.148177 13702 net.cpp:478] conv4 <- conv3
I0607 17:39:41.148193 13702 net.cpp:434] conv4 -> conv4
I0607 17:39:41.172101 13702 net.cpp:156] Setting up conv4
I0607 17:39:41.172140 13702 net.cpp:164] Top shape: 1 300 17 17 (86700)
I0607 17:39:41.172153 13702 layer_factory.hpp:76] Creating layer relu4
I0607 17:39:41.172165 13702 net.cpp:111] Creating Layer relu4
I0607 17:39:41.172173 13702 net.cpp:478] relu4 <- conv4
I0607 17:39:41.172181 13702 net.cpp:420] relu4 -> conv4 (in-place)
I0607 17:39:41.172193 13702 net.cpp:156] Setting up relu4
I0607 17:39:41.172199 13702 net.cpp:164] Top shape: 1 300 17 17 (86700)
I0607 17:39:41.172204 13702 layer_factory.hpp:76] Creating layer drop
I0607 17:39:41.172216 13702 net.cpp:111] Creating Layer drop
I0607 17:39:41.172222 13702 net.cpp:478] drop <- conv4
I0607 17:39:41.172231 13702 net.cpp:420] drop -> conv4 (in-place)
I0607 17:39:41.172250 13702 net.cpp:156] Setting up drop
I0607 17:39:41.172256 13702 net.cpp:164] Top shape: 1 300 17 17 (86700)
I0607 17:39:41.172262 13702 layer_factory.hpp:76] Creating layer score_classes
I0607 17:39:41.172271 13702 net.cpp:111] Creating Layer score_classes
I0607 17:39:41.172277 13702 net.cpp:478] score_classes <- conv4
I0607 17:39:41.172286 13702 net.cpp:434] score_classes -> score_classes
I0607 17:39:41.172356 13702 net.cpp:156] Setting up score_classes
I0607 17:39:41.172369 13702 net.cpp:164] Top shape: 1 2 17 17 (578)
I0607 17:39:41.172381 13702 layer_factory.hpp:76] Creating layer upscore
I0607 17:39:41.172394 13702 net.cpp:111] Creating Layer upscore
I0607 17:39:41.172399 13702 net.cpp:478] upscore <- score_classes
I0607 17:39:41.172407 13702 net.cpp:434] upscore -> upscore
I0607 17:39:41.173002 13702 net.cpp:156] Setting up upscore
I0607 17:39:41.173015 13702 net.cpp:164] Top shape: 1 2 271 271 (146882)
I0607 17:39:41.173024 13702 layer_factory.hpp:76] Creating layer score
I0607 17:39:41.173037 13702 net.cpp:111] Creating Layer score
I0607 17:39:41.173043 13702 net.cpp:478] score <- upscore
I0607 17:39:41.173049 13702 net.cpp:478] score <- data_data_0_split_1
I0607 17:39:41.173056 13702 net.cpp:434] score -> score
I0607 17:39:41.173101 13702 net.cpp:156] Setting up score
I0607 17:39:41.173110 13702 net.cpp:164] Top shape: 1 2 256 256 (131072)
I0607 17:39:41.173117 13702 layer_factory.hpp:76] Creating layer loss
I0607 17:39:41.173126 13702 net.cpp:111] Creating Layer loss
I0607 17:39:41.173132 13702 net.cpp:478] loss <- score
I0607 17:39:41.173140 13702 net.cpp:478] loss <- label
I0607 17:39:41.173148 13702 net.cpp:434] loss -> loss
I0607 17:39:41.260035 13702 layer_factory.hpp:76] Creating layer loss
I0607 17:39:41.260318 13702 net.cpp:156] Setting up loss
…
I0607 17:39:41.261669 13702 solver.cpp:186] Creating test net (#0) specified by test_net file: fcn_test.prototxt
I0607 17:39:41.262019 13702 net.cpp:50] Initializing net from parameters: 
name: "FCN"
force_backward: true
state {
  phase: TEST
}
layer {
  name: "data"
  type: "Data"
  top: "data"
  transform_param {
    mirror: false
    crop_size: 0
    mean_value: 77
  }
  data_param {
    source: "val_images_lmdb/"
    batch_size: 1
    backend: LMDB
  }
}
layer {
  name: "label"
  type: "Data"
  top: "label"
  data_param {
    source: "val_labels_lmdb/"
    batch_size: 1
    backend: LMDB
  }
}
layer {
  name: "conv1"
  type: "Convolution"
  bottom: "data"
  top: "conv1"
  param {
    lr_mult: 1
    decay_mult: 1
  }
  param {
    lr_mult: 2
    decay_mult: 0
  }
  convolution_param {
    num_output: 100
    pad: 50
    kernel_size: 5
    group: 1
    stride: 2
    weight_filler {
      type: "gaussian"
      mean: 0
      std: 0.01
    }
    bias_filler {
      type: "constant"
      value: 0.1
    }
  }
}
layer {
  name: "relu1"
  type: "ReLU"
  bottom: "conv1"
  top: "conv1"
}
layer {
  name: "pool1"
  type: "Pooling"
  bottom: "conv1"
  top: "pool1"
  pooling_param {
    pool: MAX
    kernel_size: 2
    stride: 2
  }
}
layer {
  name: "conv2"
  type: "Convolution"
  bottom: "pool1"
  top: "conv2"
  param {
    lr_mult: 1
    decay_mult: 1
  }
  param {
    lr_mult: 2
    decay_mult: 0
  }
  convolution_param {
    num_output: 200
    pad: 0
    kernel_size: 5
    group: 1
    stride: 2
    weight_filler {
      type: "gaussian"
      mean: 0
      std: 0.01
    }
    bias_filler {
      type: "constant"
      value: 0.1
    }
  }
}
layer {
  name: "relu2"
  type: "ReLU"
  bottom: "conv2"
  top: "conv2"
}
layer {
  name: "pool2"
  type: "Pooling"
  bottom: "conv2"
  top: "pool2"
  pooling_param {
    pool: MAX
    kernel_size: 2
    stride: 2
  }
}
layer {
  name: "conv3"
  type: "Convolution"
  bottom: "pool2"
  top: "conv3"
  param {
    lr_mult: 1
    decay_mult: 1
  }
  param {
    lr_mult: 2
    decay_mult: 0
  }
  convolution_param {
    num_output: 300
    pad: 0
    kernel_size: 3
    group: 1
    stride: 1
    weight_filler {
      type: "gaussian"
      mean: 0
      std: 0.01
    }
    bias_filler {
      type: "constant"
      value: 0.1
    }
  }
}
layer {
  name: "relu3"
  type: "ReLU"
  bottom: "conv3"
  top: "conv3"
}
layer {
  name: "conv4"
  type: "Convolution"
  bottom: "conv3"
  top: "conv4"
  param {
    lr_mult: 1
    decay_mult: 1
  }
  param {
    lr_mult: 2
    decay_mult: 0
  }
  convolution_param {
    num_output: 300
    pad: 0
    kernel_size: 3
    group: 1
    stride: 1
    weight_filler {
      type: "gaussian"
      mean: 0
      std: 0.01
    }
    bias_filler {
      type: "constant"
      value: 0.1
    }
  }
}
layer {
  name: "relu4"
  type: "ReLU"
  bottom: "conv4"
  top: "conv4"
}
layer {
  name: "drop"
  type: "Dropout"
  bottom: "conv4"
  top: "conv4"
  dropout_param {
    dropout_ratio: 0.1
  }
}
layer {
  name: "score_classes"
  type: "Convolution"
  bottom: "conv4"
  top: "score_classes"
  param {
    lr_mult: 1
    decay_mult: 1
  }
  param {
    lr_mult: 2
    decay_mult: 0
  }
  convolution_param {
    num_output: 2
    pad: 0
    kernel_size: 1
    group: 1
    stride: 1
    weight_filler {
      type: "gaussian"
      mean: 0
      std: 0.01
    }
    bias_filler {
      type: "constant"
      value: 0.1
    }
  }
}
layer {
  name: "upscore"
  type: "Deconvolution"
  bottom: "score_classes"
  top: "upscore"
  param {
    lr_mult: 1
    decay_mult: 1
  }
  param {
    lr_mult: 2
    decay_mult: 0
  }
  convolution_param {
    num_output: 2
    bias_term: true
    pad: 8
    kernel_size: 31
    stride: 16
    weight_filler {
      type: "bilinear"
    }
    bias_filler {
      type: "constant"
      value: 0.1
    }
  }
}
layer {
  name: "score"
  type: "Crop"
  bottom: "upscore"
  bottom: "data"
  top: "score"
}
layer {
  name: "loss"
  type: "SoftmaxWithLoss"
  bottom: "score"
  bottom: "label"
  top: "loss"
  loss_param {
    normalize: true
  }
}
layer {
  name: "accuracy"
  type: "Accuracy"
  bottom: "score"
  bottom: "label"
  top: "accuracy"
}
I0607 17:39:41.262197 13702 layer_factory.hpp:76] Creating layer data
I0607 17:39:41.262285 13702 net.cpp:111] Creating Layer data
I0607 17:39:41.262306 13702 net.cpp:434] data -> data
I0607 17:39:41.287521 13716 db_lmdb.cpp:22] Opened lmdb val_images_lmdb/
I0607 17:39:41.292213 13702 data_layer.cpp:44] output data size: 1,1,256,256
I0607 17:39:41.293035 13702 net.cpp:156] Setting up data
I0607 17:39:41.293053 13702 net.cpp:164] Top shape: 1 1 256 256 (65536)
I0607 17:39:41.293063 13702 layer_factory.hpp:76] Creating layer data_data_0_split
I0607 17:39:41.293078 13702 net.cpp:111] Creating Layer data_data_0_split
I0607 17:39:41.293086 13702 net.cpp:478] data_data_0_split <- data
I0607 17:39:41.293094 13702 net.cpp:434] data_data_0_split -> data_data_0_split_0
I0607 17:39:41.293107 13702 net.cpp:434] data_data_0_split -> data_data_0_split_1
I0607 17:39:41.293117 13702 net.cpp:156] Setting up data_data_0_split
I0607 17:39:41.293126 13702 net.cpp:164] Top shape: 1 1 256 256 (65536)
I0607 17:39:41.293133 13702 net.cpp:164] Top shape: 1 1 256 256 (65536)
I0607 17:39:41.293138 13702 layer_factory.hpp:76] Creating layer label
I0607 17:39:41.293184 13702 net.cpp:111] Creating Layer label
I0607 17:39:41.293195 13702 net.cpp:434] label -> label
I0607 17:39:41.328234 13718 db_lmdb.cpp:22] Opened lmdb val_labels_lmdb/
I0607 17:39:41.329159 13702 data_layer.cpp:44] output data size: 1,1,256,256
I0607 17:39:41.329932 13702 net.cpp:156] Setting up label
I0607 17:39:41.329952 13702 net.cpp:164] Top shape: 1 1 256 256 (65536)
I0607 17:39:41.329960 13702 layer_factory.hpp:76] Creating layer label_label_0_split
I0607 17:39:41.329972 13702 net.cpp:111] Creating Layer label_label_0_split
I0607 17:39:41.329978 13702 net.cpp:478] label_label_0_split <- label
I0607 17:39:41.329989 13702 net.cpp:434] label_label_0_split -> label_label_0_split_0
I0607 17:39:41.330003 13702 net.cpp:434] label_label_0_split -> label_label_0_split_1
I0607 17:39:41.330014 13702 net.cpp:156] Setting up label_label_0_split
I0607 17:39:41.330023 13702 net.cpp:164] Top shape: 1 1 256 256 (65536)
I0607 17:39:41.330029 13702 net.cpp:164] Top shape: 1 1 256 256 (65536)
I0607 17:39:41.330034 13702 layer_factory.hpp:76] Creating layer conv1
I0607 17:39:41.330049 13702 net.cpp:111] Creating Layer conv1
I0607 17:39:41.330054 13702 net.cpp:478] conv1 <- data_data_0_split_0
I0607 17:39:41.330062 13702 net.cpp:434] conv1 -> conv1
I0607 17:39:41.330200 13702 net.cpp:156] Setting up conv1
I0607 17:39:41.330212 13702 net.cpp:164] Top shape: 1 100 176 176 (3097600)
I0607 17:39:41.330225 13702 layer_factory.hpp:76] Creating layer relu1
I0607 17:39:41.330241 13702 net.cpp:111] Creating Layer relu1
I0607 17:39:41.330255 13702 net.cpp:478] relu1 <- conv1
I0607 17:39:41.330263 13702 net.cpp:420] relu1 -> conv1 (in-place)
I0607 17:39:41.330272 13702 net.cpp:156] Setting up relu1
I0607 17:39:41.330279 13702 net.cpp:164] Top shape: 1 100 176 176 (3097600)
I0607 17:39:41.330286 13702 layer_factory.hpp:76] Creating layer pool1
I0607 17:39:41.330293 13702 net.cpp:111] Creating Layer pool1
I0607 17:39:41.330299 13702 net.cpp:478] pool1 <- conv1
I0607 17:39:41.330307 13702 net.cpp:434] pool1 -> pool1
I0607 17:39:41.330317 13702 net.cpp:156] Setting up pool1
I0607 17:39:41.330325 13702 net.cpp:164] Top shape: 1 100 88 88 (774400)
I0607 17:39:41.330330 13702 layer_factory.hpp:76] Creating layer conv2
I0607 17:39:41.330343 13702 net.cpp:111] Creating Layer conv2
I0607 17:39:41.330348 13702 net.cpp:478] conv2 <- pool1
I0607 17:39:41.330358 13702 net.cpp:434] conv2 -> conv2
I0607 17:39:41.343511 13702 net.cpp:156] Setting up conv2
I0607 17:39:41.343551 13702 net.cpp:164] Top shape: 1 200 42 42 (352800)
I0607 17:39:41.343569 13702 layer_factory.hpp:76] Creating layer relu2
I0607 17:39:41.343583 13702 net.cpp:111] Creating Layer relu2
I0607 17:39:41.343590 13702 net.cpp:478] relu2 <- conv2
I0607 17:39:41.343598 13702 net.cpp:420] relu2 -> conv2 (in-place)
I0607 17:39:41.343611 13702 net.cpp:156] Setting up relu2
I0607 17:39:41.343617 13702 net.cpp:164] Top shape: 1 200 42 42 (352800)
I0607 17:39:41.343623 13702 layer_factory.hpp:76] Creating layer pool2
I0607 17:39:41.343631 13702 net.cpp:111] Creating Layer pool2
I0607 17:39:41.343637 13702 net.cpp:478] pool2 <- conv2
I0607 17:39:41.343647 13702 net.cpp:434] pool2 -> pool2
I0607 17:39:41.343659 13702 net.cpp:156] Setting up pool2
I0607 17:39:41.343667 13702 net.cpp:164] Top shape: 1 200 21 21 (88200)
I0607 17:39:41.343672 13702 layer_factory.hpp:76] Creating layer conv3
I0607 17:39:41.343682 13702 net.cpp:111] Creating Layer conv3
I0607 17:39:41.343688 13702 net.cpp:478] conv3 <- pool2
I0607 17:39:41.343695 13702 net.cpp:434] conv3 -> conv3
I0607 17:39:41.357666 13702 net.cpp:156] Setting up conv3
I0607 17:39:41.357700 13702 net.cpp:164] Top shape: 1 300 19 19 (108300)
I0607 17:39:41.357717 13702 layer_factory.hpp:76] Creating layer relu3
I0607 17:39:41.357728 13702 net.cpp:111] Creating Layer relu3
I0607 17:39:41.357735 13702 net.cpp:478] relu3 <- conv3
I0607 17:39:41.357756 13702 net.cpp:420] relu3 -> conv3 (in-place)
I0607 17:39:41.357774 13702 net.cpp:156] Setting up relu3
I0607 17:39:41.357781 13702 net.cpp:164] Top shape: 1 300 19 19 (108300)
I0607 17:39:41.357786 13702 layer_factory.hpp:76] Creating layer conv4
I0607 17:39:41.357798 13702 net.cpp:111] Creating Layer conv4
I0607 17:39:41.357805 13702 net.cpp:478] conv4 <- conv3
I0607 17:39:41.357813 13702 net.cpp:434] conv4 -> conv4
I0607 17:39:41.378309 13702 net.cpp:156] Setting up conv4
I0607 17:39:41.378345 13702 net.cpp:164] Top shape: 1 300 17 17 (86700)
I0607 17:39:41.378357 13702 layer_factory.hpp:76] Creating layer relu4
I0607 17:39:41.378368 13702 net.cpp:111] Creating Layer relu4
I0607 17:39:41.378376 13702 net.cpp:478] relu4 <- conv4
I0607 17:39:41.378386 13702 net.cpp:420] relu4 -> conv4 (in-place)
I0607 17:39:41.378398 13702 net.cpp:156] Setting up relu4
I0607 17:39:41.378406 13702 net.cpp:164] Top shape: 1 300 17 17 (86700)
I0607 17:39:41.378410 13702 layer_factory.hpp:76] Creating layer drop
I0607 17:39:41.378419 13702 net.cpp:111] Creating Layer drop
I0607 17:39:41.378425 13702 net.cpp:478] drop <- conv4
I0607 17:39:41.378432 13702 net.cpp:420] drop -> conv4 (in-place)
I0607 17:39:41.378442 13702 net.cpp:156] Setting up drop
I0607 17:39:41.378448 13702 net.cpp:164] Top shape: 1 300 17 17 (86700)
I0607 17:39:41.378453 13702 layer_factory.hpp:76] Creating layer score_classes
I0607 17:39:41.378465 13702 net.cpp:111] Creating Layer score_classes
I0607 17:39:41.378471 13702 net.cpp:478] score_classes <- conv4
I0607 17:39:41.378479 13702 net.cpp:434] score_classes -> score_classes
I0607 17:39:41.378551 13702 net.cpp:156] Setting up score_classes
I0607 17:39:41.378571 13702 net.cpp:164] Top shape: 1 2 17 17 (578)
I0607 17:39:41.378592 13702 layer_factory.hpp:76] Creating layer upscore
I0607 17:39:41.378607 13702 net.cpp:111] Creating Layer upscore
I0607 17:39:41.378612 13702 net.cpp:478] upscore <- score_classes
I0607 17:39:41.378620 13702 net.cpp:434] upscore -> upscore
I0607 17:39:41.379207 13702 net.cpp:156] Setting up upscore
I0607 17:39:41.379221 13702 net.cpp:164] Top shape: 1 2 271 271 (146882)
I0607 17:39:41.379230 13702 layer_factory.hpp:76] Creating layer score
I0607 17:39:41.379238 13702 net.cpp:111] Creating Layer score
I0607 17:39:41.379245 13702 net.cpp:478] score <- upscore
I0607 17:39:41.379251 13702 net.cpp:478] score <- data_data_0_split_1
I0607 17:39:41.379257 13702 net.cpp:434] score -> score
I0607 17:39:41.379287 13702 net.cpp:156] Setting up score
I0607 17:39:41.379294 13702 net.cpp:164] Top shape: 1 2 256 256 (131072)
I0607 17:39:41.379300 13702 layer_factory.hpp:76] Creating layer score_score_0_split
I0607 17:39:41.379310 13702 net.cpp:111] Creating Layer score_score_0_split
I0607 17:39:41.379317 13702 net.cpp:478] score_score_0_split <- score
I0607 17:39:41.379323 13702 net.cpp:434] score_score_0_split -> score_score_0_split_0
I0607 17:39:41.379333 13702 net.cpp:434] score_score_0_split -> score_score_0_split_1
I0607 17:39:41.379343 13702 net.cpp:156] Setting up score_score_0_split
I0607 17:39:41.379351 13702 net.cpp:164] Top shape: 1 2 256 256 (131072)
I0607 17:39:41.379359 13702 net.cpp:164] Top shape: 1 2 256 256 (131072)
I0607 17:39:41.379364 13702 layer_factory.hpp:76] Creating layer loss
I0607 17:39:41.379371 13702 net.cpp:111] Creating Layer loss
I0607 17:39:41.379377 13702 net.cpp:478] loss <- score_score_0_split_0
I0607 17:39:41.379384 13702 net.cpp:478] loss <- label_label_0_split_0
I0607 17:39:41.379390 13702 net.cpp:434] loss -> loss
I0607 17:39:41.379400 13702 layer_factory.hpp:76] Creating layer loss
…
