…
I0531 10:24:55.418256 24433 solver.cpp:86] Creating training net from train_net file: fcn_train.prototxt
I0531 10:24:55.418853 24433 net.cpp:50] Initializing net from parameters: 
name: "FCN"
force_backward: true
state {
  phase: TRAIN
}
layer {
  name: "data"
  type: "Data"
  top: "data"
  transform_param {
    mirror: false
    crop_size: 0
    mean_value: 77
  }
  data_param {
    source: "train_images_lmdb/"
    batch_size: 1
    backend: LMDB
  }
}
layer {
  name: "label"
  type: "Data"
  top: "label"
  data_param {
    source: "train_labels_lmdb/"
    batch_size: 1
    backend: LMDB
  }
}
layer {
  name: "conv1"
  type: "Convolution"
  bottom: "data"
  top: "conv1"
  param {
    lr_mult: 1
    decay_mult: 1
  }
  param {
    lr_mult: 2
    decay_mult: 0
  }
  convolution_param {
    num_output: 100
    pad: 50
    kernel_size: 5
    group: 1
    stride: 2
    weight_filler {
      type: "gaussian"
      mean: 0
      std: 0.01
    }
    bias_filler {
      type: "constant"
      value: 0.1
    }
  }
}
layer {
  name: "relu1"
  type: "ReLU"
  bottom: "conv1"
  top: "conv1"
}
layer {
  name: "pool1"
  type: "Pooling"
  bottom: "conv1"
  top: "pool1"
  pooling_param {
    pool: MAX
    kernel_size: 2
    stride: 2
  }
}
layer {
  name: "conv2"
  type: "Convolution"
  bottom: "pool1"
  top: "conv2"
  param {
    lr_mult: 1
    decay_mult: 1
  }
  param {
    lr_mult: 2
    decay_mult: 0
  }
  convolution_param {
    num_output: 200
    pad: 0
    kernel_size: 5
    group: 1
    stride: 2
    weight_filler {
      type: "gaussian"
      mean: 0
      std: 0.01
    }
    bias_filler {
      type: "constant"
      value: 0.1
    }
  }
}
layer {
  name: "relu2"
  type: "ReLU"
  bottom: "conv2"
  top: "conv2"
}
layer {
  name: "pool2"
  type: "Pooling"
  bottom: "conv2"
  top: "pool2"
  pooling_param {
    pool: MAX
    kernel_size: 2
    stride: 2
  }
}
layer {
  name: "conv3"
  type: "Convolution"
  bottom: "pool2"
  top: "conv3"
  param {
    lr_mult: 1
    decay_mult: 1
  }
  param {
    lr_mult: 2
    decay_mult: 0
  }
  convolution_param {
    num_output: 300
    pad: 0
    kernel_size: 3
    group: 1
    stride: 1
    weight_filler {
      type: "gaussian"
      mean: 0
      std: 0.01
    }
    bias_filler {
      type: "constant"
      value: 0.1
    }
  }
}
layer {
  name: "relu3"
  type: "ReLU"
  bottom: "conv3"
  top: "conv3"
}
layer {
  name: "conv4"
  type: "Convolution"
  bottom: "conv3"
  top: "conv4"
  param {
    lr_mult: 1
    decay_mult: 1
  }
  param {
    lr_mult: 2
    decay_mult: 0
  }
  convolution_param {
    num_output: 300
    pad: 0
    kernel_size: 3
    group: 1
    stride: 1
    weight_filler {
      type: "gaussian"
      mean: 0
      std: 0.01
    }
    bias_filler {
      type: "constant"
      value: 0.1
    }
  }
}
layer {
  name: "relu4"
  type: "ReLU"
  bottom: "conv4"
  top: "conv4"
}
layer {
  name: "drop"
  type: "Dropout"
  bottom: "conv4"
  top: "conv4"
  dropout_param {
    dropout_ratio: 0.1
  }
}
layer {
  name: "score_classes"
  type: "Convolution"
  bottom: "conv4"
  top: "score_classes"
  param {
    lr_mult: 1
    decay_mult: 1
  }
  param {
    lr_mult: 2
    decay_mult: 0
  }
  convolution_param {
    num_output: 2
    pad: 0
    kernel_size: 1
    group: 1
    stride: 1
    weight_filler {
      type: "gaussian"
      mean: 0
      std: 0.01
    }
    bias_filler {
      type: "constant"
      value: 0.1
    }
  }
}
layer {
  name: "upscore"
  type: "Deconvolution"
  bottom: "score_classes"
  top: "upscore"
  param {
    lr_mult: 1
    decay_mult: 1
  }
  param {
    lr_mult: 2
    decay_mult: 0
  }
  convolution_param {
    num_output: 2
    bias_term: true
    pad: 8
    kernel_size: 31
    stride: 16
    weight_filler {
      type: "bilinear"
    }
    bias_filler {
      type: "constant"
      value: 0.1
    }
  }
}
layer {
  name: "score"
  type: "Crop"
  bottom: "upscore"
  bottom: "data"
  top: "score"
}
layer {
  name: "loss"
  type: "SoftmaxWithLoss"
  bottom: "score"
  bottom: "label"
  top: "loss"
  loss_param {
    normalize: true
  }
}
I0531 10:24:55.418979 24433 layer_factory.hpp:76] Creating layer data
I0531 10:24:55.419097 24433 net.cpp:111] Creating Layer data
I0531 10:24:55.419116 24433 net.cpp:434] data -> data
I0531 10:24:55.420269 24437 db_lmdb.cpp:22] Opened lmdb train_images_lmdb/
I0531 10:24:55.420825 24433 data_layer.cpp:44] output data size: 1,1,256,256
I0531 10:24:55.427853 24433 net.cpp:156] Setting up data
I0531 10:24:55.427899 24433 net.cpp:164] Top shape: 1 1 256 256 (65536)
I0531 10:24:55.427913 24433 layer_factory.hpp:76] Creating layer data_data_0_split
I0531 10:24:55.427928 24433 net.cpp:111] Creating Layer data_data_0_split
I0531 10:24:55.427937 24433 net.cpp:478] data_data_0_split <- data
I0531 10:24:55.427948 24433 net.cpp:434] data_data_0_split -> data_data_0_split_0
I0531 10:24:55.427963 24433 net.cpp:434] data_data_0_split -> data_data_0_split_1
I0531 10:24:55.427980 24433 net.cpp:156] Setting up data_data_0_split
I0531 10:24:55.427990 24433 net.cpp:164] Top shape: 1 1 256 256 (65536)
I0531 10:24:55.427999 24433 net.cpp:164] Top shape: 1 1 256 256 (65536)
I0531 10:24:55.428004 24433 layer_factory.hpp:76] Creating layer label
I0531 10:24:55.428189 24433 net.cpp:111] Creating Layer label
I0531 10:24:55.428201 24433 net.cpp:434] label -> label
I0531 10:24:55.429687 24439 db_lmdb.cpp:22] Opened lmdb train_labels_lmdb/
I0531 10:24:55.429841 24433 data_layer.cpp:44] output data size: 1,1,256,256
I0531 10:24:55.431272 24433 net.cpp:156] Setting up label
I0531 10:24:55.431304 24433 net.cpp:164] Top shape: 1 1 256 256 (65536)
I0531 10:24:55.431318 24433 layer_factory.hpp:76] Creating layer conv1
I0531 10:24:55.431344 24433 net.cpp:111] Creating Layer conv1
I0531 10:24:55.431357 24433 net.cpp:478] conv1 <- data_data_0_split_0
I0531 10:24:55.431380 24433 net.cpp:434] conv1 -> conv1
I0531 10:24:55.432678 24433 net.cpp:156] Setting up conv1
I0531 10:24:55.432705 24433 net.cpp:164] Top shape: 1 100 176 176 (3097600)
I0531 10:24:55.432737 24433 layer_factory.hpp:76] Creating layer relu1
I0531 10:24:55.432760 24433 net.cpp:111] Creating Layer relu1
I0531 10:24:55.432772 24433 net.cpp:478] relu1 <- conv1
I0531 10:24:55.432788 24433 net.cpp:420] relu1 -> conv1 (in-place)
I0531 10:24:55.432806 24433 net.cpp:156] Setting up relu1
I0531 10:24:55.432821 24433 net.cpp:164] Top shape: 1 100 176 176 (3097600)
I0531 10:24:55.432832 24433 layer_factory.hpp:76] Creating layer pool1
I0531 10:24:55.432848 24433 net.cpp:111] Creating Layer pool1
I0531 10:24:55.432858 24433 net.cpp:478] pool1 <- conv1
I0531 10:24:55.432871 24433 net.cpp:434] pool1 -> pool1
I0531 10:24:55.432898 24433 net.cpp:156] Setting up pool1
I0531 10:24:55.432912 24433 net.cpp:164] Top shape: 1 100 88 88 (774400)
I0531 10:24:55.432922 24433 layer_factory.hpp:76] Creating layer conv2
I0531 10:24:55.432940 24433 net.cpp:111] Creating Layer conv2
I0531 10:24:55.432951 24433 net.cpp:478] conv2 <- pool1
I0531 10:24:55.432965 24433 net.cpp:434] conv2 -> conv2
I0531 10:24:55.453023 24433 net.cpp:156] Setting up conv2
I0531 10:24:55.453083 24433 net.cpp:164] Top shape: 1 200 42 42 (352800)
I0531 10:24:55.453109 24433 layer_factory.hpp:76] Creating layer relu2
I0531 10:24:55.453127 24433 net.cpp:111] Creating Layer relu2
I0531 10:24:55.453140 24433 net.cpp:478] relu2 <- conv2
I0531 10:24:55.453153 24433 net.cpp:420] relu2 -> conv2 (in-place)
I0531 10:24:55.453173 24433 net.cpp:156] Setting up relu2
I0531 10:24:55.453186 24433 net.cpp:164] Top shape: 1 200 42 42 (352800)
I0531 10:24:55.453197 24433 layer_factory.hpp:76] Creating layer pool2
I0531 10:24:55.453213 24433 net.cpp:111] Creating Layer pool2
I0531 10:24:55.453223 24433 net.cpp:478] pool2 <- conv2
I0531 10:24:55.453248 24433 net.cpp:434] pool2 -> pool2
I0531 10:24:55.453277 24433 net.cpp:156] Setting up pool2
I0531 10:24:55.453291 24433 net.cpp:164] Top shape: 1 200 21 21 (88200)
I0531 10:24:55.453301 24433 layer_factory.hpp:76] Creating layer conv3
I0531 10:24:55.453320 24433 net.cpp:111] Creating Layer conv3
I0531 10:24:55.453331 24433 net.cpp:478] conv3 <- pool2
I0531 10:24:55.453346 24433 net.cpp:434] conv3 -> conv3
I0531 10:24:55.470468 24433 net.cpp:156] Setting up conv3
I0531 10:24:55.470516 24433 net.cpp:164] Top shape: 1 300 19 19 (108300)
I0531 10:24:55.470535 24433 layer_factory.hpp:76] Creating layer relu3
I0531 10:24:55.470547 24433 net.cpp:111] Creating Layer relu3
I0531 10:24:55.470556 24433 net.cpp:478] relu3 <- conv3
I0531 10:24:55.470567 24433 net.cpp:420] relu3 -> conv3 (in-place)
I0531 10:24:55.470580 24433 net.cpp:156] Setting up relu3
I0531 10:24:55.470588 24433 net.cpp:164] Top shape: 1 300 19 19 (108300)
I0531 10:24:55.470595 24433 layer_factory.hpp:76] Creating layer conv4
I0531 10:24:55.470605 24433 net.cpp:111] Creating Layer conv4
I0531 10:24:55.470613 24433 net.cpp:478] conv4 <- conv3
I0531 10:24:55.470621 24433 net.cpp:434] conv4 -> conv4
I0531 10:24:55.498211 24433 net.cpp:156] Setting up conv4
I0531 10:24:55.498275 24433 net.cpp:164] Top shape: 1 300 17 17 (86700)
I0531 10:24:55.498301 24433 layer_factory.hpp:76] Creating layer relu4
I0531 10:24:55.498322 24433 net.cpp:111] Creating Layer relu4
I0531 10:24:55.498337 24433 net.cpp:478] relu4 <- conv4
I0531 10:24:55.498355 24433 net.cpp:420] relu4 -> conv4 (in-place)
I0531 10:24:55.498375 24433 net.cpp:156] Setting up relu4
I0531 10:24:55.498391 24433 net.cpp:164] Top shape: 1 300 17 17 (86700)
I0531 10:24:55.498404 24433 layer_factory.hpp:76] Creating layer drop
I0531 10:24:55.498426 24433 net.cpp:111] Creating Layer drop
I0531 10:24:55.498440 24433 net.cpp:478] drop <- conv4
I0531 10:24:55.498456 24433 net.cpp:420] drop -> conv4 (in-place)
I0531 10:24:55.498483 24433 net.cpp:156] Setting up drop
I0531 10:24:55.498502 24433 net.cpp:164] Top shape: 1 300 17 17 (86700)
I0531 10:24:55.498514 24433 layer_factory.hpp:76] Creating layer score_classes
I0531 10:24:55.498536 24433 net.cpp:111] Creating Layer score_classes
I0531 10:24:55.498550 24433 net.cpp:478] score_classes <- conv4
I0531 10:24:55.498569 24433 net.cpp:434] score_classes -> score_classes
I0531 10:24:55.498688 24433 net.cpp:156] Setting up score_classes
I0531 10:24:55.498708 24433 net.cpp:164] Top shape: 1 2 17 17 (578)
I0531 10:24:55.498736 24433 layer_factory.hpp:76] Creating layer upscore
I0531 10:24:55.498759 24433 net.cpp:111] Creating Layer upscore
I0531 10:24:55.498772 24433 net.cpp:478] upscore <- score_classes
I0531 10:24:55.498792 24433 net.cpp:434] upscore -> upscore
I0531 10:24:55.499815 24433 net.cpp:156] Setting up upscore
I0531 10:24:55.499845 24433 net.cpp:164] Top shape: 1 2 271 271 (146882)
I0531 10:24:55.499866 24433 layer_factory.hpp:76] Creating layer score
I0531 10:24:55.499889 24433 net.cpp:111] Creating Layer score
I0531 10:24:55.499904 24433 net.cpp:478] score <- upscore
I0531 10:24:55.499918 24433 net.cpp:478] score <- data_data_0_split_1
I0531 10:24:55.499935 24433 net.cpp:434] score -> score
I0531 10:24:55.500010 24433 net.cpp:156] Setting up score
I0531 10:24:55.500030 24433 net.cpp:164] Top shape: 1 2 256 256 (131072)
I0531 10:24:55.500042 24433 layer_factory.hpp:76] Creating layer loss
I0531 10:24:55.500061 24433 net.cpp:111] Creating Layer loss
I0531 10:24:55.500074 24433 net.cpp:478] loss <- score
I0531 10:24:55.500088 24433 net.cpp:478] loss <- label
I0531 10:24:55.500104 24433 net.cpp:434] loss -> loss
I0531 10:24:55.500133 24433 layer_factory.hpp:76] Creating layer loss
I0531 10:24:55.500324 24433 net.cpp:156] Setting up loss
…
I0531 10:24:55.501569 24433 solver.cpp:186] Creating test net (#0) specified by test_net file: fcn_test.prototxt
I0531 10:24:55.501915 24433 net.cpp:50] Initializing net from parameters: 
name: "FCN"
force_backward: true
state {
  phase: TEST
}
layer {
  name: "data"
  type: "Data"
  top: "data"
  transform_param {
    mirror: false
    crop_size: 0
    mean_value: 77
  }
  data_param {
    source: "val_images_lmdb/"
    batch_size: 1
    backend: LMDB
  }
}
layer {
  name: "label"
  type: "Data"
  top: "label"
  data_param {
    source: "val_labels_lmdb/"
    batch_size: 1
    backend: LMDB
  }
}
layer {
  name: "conv1"
  type: "Convolution"
  bottom: "data"
  top: "conv1"
  param {
    lr_mult: 1
    decay_mult: 1
  }
  param {
    lr_mult: 2
    decay_mult: 0
  }
  convolution_param {
    num_output: 100
    pad: 50
    kernel_size: 5
    group: 1
    stride: 2
    weight_filler {
      type: "gaussian"
      mean: 0
      std: 0.01
    }
    bias_filler {
      type: "constant"
      value: 0.1
    }
  }
}
layer {
  name: "relu1"
  type: "ReLU"
  bottom: "conv1"
  top: "conv1"
}
layer {
  name: "pool1"
  type: "Pooling"
  bottom: "conv1"
  top: "pool1"
  pooling_param {
    pool: MAX
    kernel_size: 2
    stride: 2
  }
}
layer {
  name: "conv2"
  type: "Convolution"
  bottom: "pool1"
  top: "conv2"
  param {
    lr_mult: 1
    decay_mult: 1
  }
  param {
    lr_mult: 2
    decay_mult: 0
  }
  convolution_param {
    num_output: 200
    pad: 0
    kernel_size: 5
    group: 1
    stride: 2
    weight_filler {
      type: "gaussian"
      mean: 0
      std: 0.01
    }
    bias_filler {
      type: "constant"
      value: 0.1
    }
  }
}
layer {
  name: "relu2"
  type: "ReLU"
  bottom: "conv2"
  top: "conv2"
}
layer {
  name: "pool2"
  type: "Pooling"
  bottom: "conv2"
  top: "pool2"
  pooling_param {
    pool: MAX
    kernel_size: 2
    stride: 2
  }
}
layer {
  name: "conv3"
  type: "Convolution"
  bottom: "pool2"
  top: "conv3"
  param {
    lr_mult: 1
    decay_mult: 1
  }
  param {
    lr_mult: 2
    decay_mult: 0
  }
  convolution_param {
    num_output: 300
    pad: 0
    kernel_size: 3
    group: 1
    stride: 1
    weight_filler {
      type: "gaussian"
      mean: 0
      std: 0.01
    }
    bias_filler {
      type: "constant"
      value: 0.1
    }
  }
}
layer {
  name: "relu3"
  type: "ReLU"
  bottom: "conv3"
  top: "conv3"
}
layer {
  name: "conv4"
  type: "Convolution"
  bottom: "conv3"
  top: "conv4"
  param {
    lr_mult: 1
    decay_mult: 1
  }
  param {
    lr_mult: 2
    decay_mult: 0
  }
  convolution_param {
    num_output: 300
    pad: 0
    kernel_size: 3
    group: 1
    stride: 1
    weight_filler {
      type: "gaussian"
      mean: 0
      std: 0.01
    }
    bias_filler {
      type: "constant"
      value: 0.1
    }
  }
}
layer {
  name: "relu4"
  type: "ReLU"
  bottom: "conv4"
  top: "conv4"
}
layer {
  name: "drop"
  type: "Dropout"
  bottom: "conv4"
  top: "conv4"
  dropout_param {
    dropout_ratio: 0.1
  }
}
layer {
  name: "score_classes"
  type: "Convolution"
  bottom: "conv4"
  top: "score_classes"
  param {
    lr_mult: 1
    decay_mult: 1
  }
  param {
    lr_mult: 2
    decay_mult: 0
  }
  convolution_param {
    num_output: 2
    pad: 0
    kernel_size: 1
    group: 1
    stride: 1
    weight_filler {
      type: "gaussian"
      mean: 0
      std: 0.01
    }
    bias_filler {
      type: "constant"
      value: 0.1
    }
  }
}
layer {
  name: "upscore"
  type: "Deconvolution"
  bottom: "score_classes"
  top: "upscore"
  param {
    lr_mult: 1
    decay_mult: 1
  }
  param {
    lr_mult: 2
    decay_mult: 0
  }
  convolution_param {
    num_output: 2
    bias_term: true
    pad: 8
    kernel_size: 31
    stride: 16
    weight_filler {
      type: "bilinear"
    }
    bias_filler {
      type: "constant"
      value: 0.1
    }
  }
}
layer {
  name: "score"
  type: "Crop"
  bottom: "upscore"
  bottom: "data"
  top: "score"
}
layer {
  name: "loss"
  type: "SoftmaxWithLoss"
  bottom: "score"
  bottom: "label"
  top: "loss"
  loss_param {
    normalize: true
  }
}
layer {
  name: "accuracy"
  type: "Accuracy"
  bottom: "score"
  bottom: "label"
  top: "accuracy"
}
I0531 10:24:55.502100 24433 layer_factory.hpp:76] Creating layer data
I0531 10:24:55.502187 24433 net.cpp:111] Creating Layer data
I0531 10:24:55.502209 24433 net.cpp:434] data -> data
I0531 10:24:55.503365 24441 db_lmdb.cpp:22] Opened lmdb val_images_lmdb/
I0531 10:24:55.504853 24433 data_layer.cpp:44] output data size: 1,1,256,256
I0531 10:24:55.505915 24433 net.cpp:156] Setting up data
I0531 10:24:55.505944 24433 net.cpp:164] Top shape: 1 1 256 256 (65536)
I0531 10:24:55.505957 24433 layer_factory.hpp:76] Creating layer data_data_0_split
I0531 10:24:55.505976 24433 net.cpp:111] Creating Layer data_data_0_split
I0531 10:24:55.505987 24433 net.cpp:478] data_data_0_split <- data
I0531 10:24:55.506005 24433 net.cpp:434] data_data_0_split -> data_data_0_split_0
I0531 10:24:55.506023 24433 net.cpp:434] data_data_0_split -> data_data_0_split_1
I0531 10:24:55.506041 24433 net.cpp:156] Setting up data_data_0_split
I0531 10:24:55.506054 24433 net.cpp:164] Top shape: 1 1 256 256 (65536)
I0531 10:24:55.506067 24433 net.cpp:164] Top shape: 1 1 256 256 (65536)
I0531 10:24:55.506077 24433 layer_factory.hpp:76] Creating layer label
I0531 10:24:55.506134 24433 net.cpp:111] Creating Layer label
I0531 10:24:55.506155 24433 net.cpp:434] label -> label
I0531 10:24:55.507825 24443 db_lmdb.cpp:22] Opened lmdb val_labels_lmdb/
I0531 10:24:55.508169 24433 data_layer.cpp:44] output data size: 1,1,256,256
I0531 10:24:55.509007 24433 net.cpp:156] Setting up label
I0531 10:24:55.509035 24433 net.cpp:164] Top shape: 1 1 256 256 (65536)
I0531 10:24:55.509048 24433 layer_factory.hpp:76] Creating layer label_label_0_split
I0531 10:24:55.509063 24433 net.cpp:111] Creating Layer label_label_0_split
I0531 10:24:55.509074 24433 net.cpp:478] label_label_0_split <- label
I0531 10:24:55.509089 24433 net.cpp:434] label_label_0_split -> label_label_0_split_0
I0531 10:24:55.509109 24433 net.cpp:434] label_label_0_split -> label_label_0_split_1
I0531 10:24:55.509126 24433 net.cpp:156] Setting up label_label_0_split
I0531 10:24:55.509140 24433 net.cpp:164] Top shape: 1 1 256 256 (65536)
I0531 10:24:55.509152 24433 net.cpp:164] Top shape: 1 1 256 256 (65536)
I0531 10:24:55.509162 24433 layer_factory.hpp:76] Creating layer conv1
I0531 10:24:55.509182 24433 net.cpp:111] Creating Layer conv1
I0531 10:24:55.509194 24433 net.cpp:478] conv1 <- data_data_0_split_0
I0531 10:24:55.509208 24433 net.cpp:434] conv1 -> conv1
I0531 10:24:55.509403 24433 net.cpp:156] Setting up conv1
I0531 10:24:55.509421 24433 net.cpp:164] Top shape: 1 100 176 176 (3097600)
I0531 10:24:55.509443 24433 layer_factory.hpp:76] Creating layer relu1
I0531 10:24:55.509466 24433 net.cpp:111] Creating Layer relu1
I0531 10:24:55.509487 24433 net.cpp:478] relu1 <- conv1
I0531 10:24:55.509500 24433 net.cpp:420] relu1 -> conv1 (in-place)
I0531 10:24:55.509515 24433 net.cpp:156] Setting up relu1
I0531 10:24:55.509528 24433 net.cpp:164] Top shape: 1 100 176 176 (3097600)
I0531 10:24:55.509541 24433 layer_factory.hpp:76] Creating layer pool1
I0531 10:24:55.509557 24433 net.cpp:111] Creating Layer pool1
I0531 10:24:55.509570 24433 net.cpp:478] pool1 <- conv1
I0531 10:24:55.509585 24433 net.cpp:434] pool1 -> pool1
I0531 10:24:55.509605 24433 net.cpp:156] Setting up pool1
I0531 10:24:55.509619 24433 net.cpp:164] Top shape: 1 100 88 88 (774400)
I0531 10:24:55.509629 24433 layer_factory.hpp:76] Creating layer conv2
I0531 10:24:55.509646 24433 net.cpp:111] Creating Layer conv2
I0531 10:24:55.509657 24433 net.cpp:478] conv2 <- pool1
I0531 10:24:55.509675 24433 net.cpp:434] conv2 -> conv2
I0531 10:24:55.528626 24433 net.cpp:156] Setting up conv2
I0531 10:24:55.528683 24433 net.cpp:164] Top shape: 1 200 42 42 (352800)
I0531 10:24:55.528712 24433 layer_factory.hpp:76] Creating layer relu2
I0531 10:24:55.528739 24433 net.cpp:111] Creating Layer relu2
I0531 10:24:55.528753 24433 net.cpp:478] relu2 <- conv2
I0531 10:24:55.528770 24433 net.cpp:420] relu2 -> conv2 (in-place)
I0531 10:24:55.528789 24433 net.cpp:156] Setting up relu2
I0531 10:24:55.528802 24433 net.cpp:164] Top shape: 1 200 42 42 (352800)
I0531 10:24:55.528815 24433 layer_factory.hpp:76] Creating layer pool2
I0531 10:24:55.528832 24433 net.cpp:111] Creating Layer pool2
I0531 10:24:55.528842 24433 net.cpp:478] pool2 <- conv2
I0531 10:24:55.528858 24433 net.cpp:434] pool2 -> pool2
I0531 10:24:55.528878 24433 net.cpp:156] Setting up pool2
I0531 10:24:55.528892 24433 net.cpp:164] Top shape: 1 200 21 21 (88200)
I0531 10:24:55.528901 24433 layer_factory.hpp:76] Creating layer conv3
I0531 10:24:55.528918 24433 net.cpp:111] Creating Layer conv3
I0531 10:24:55.528928 24433 net.cpp:478] conv3 <- pool2
I0531 10:24:55.528941 24433 net.cpp:434] conv3 -> conv3
I0531 10:24:55.549227 24433 net.cpp:156] Setting up conv3
I0531 10:24:55.549285 24433 net.cpp:164] Top shape: 1 300 19 19 (108300)
I0531 10:24:55.549312 24433 layer_factory.hpp:76] Creating layer relu3
I0531 10:24:55.549330 24433 net.cpp:111] Creating Layer relu3
I0531 10:24:55.549342 24433 net.cpp:478] relu3 <- conv3
I0531 10:24:55.549356 24433 net.cpp:420] relu3 -> conv3 (in-place)
I0531 10:24:55.549372 24433 net.cpp:156] Setting up relu3
I0531 10:24:55.549386 24433 net.cpp:164] Top shape: 1 300 19 19 (108300)
I0531 10:24:55.549396 24433 layer_factory.hpp:76] Creating layer conv4
I0531 10:24:55.549414 24433 net.cpp:111] Creating Layer conv4
I0531 10:24:55.549425 24433 net.cpp:478] conv4 <- conv3
I0531 10:24:55.549439 24433 net.cpp:434] conv4 -> conv4
I0531 10:24:55.579607 24433 net.cpp:156] Setting up conv4
I0531 10:24:55.579668 24433 net.cpp:164] Top shape: 1 300 17 17 (86700)
I0531 10:24:55.579691 24433 layer_factory.hpp:76] Creating layer relu4
I0531 10:24:55.579710 24433 net.cpp:111] Creating Layer relu4
I0531 10:24:55.579720 24433 net.cpp:478] relu4 <- conv4
I0531 10:24:55.579737 24433 net.cpp:420] relu4 -> conv4 (in-place)
I0531 10:24:55.579756 24433 net.cpp:156] Setting up relu4
I0531 10:24:55.579767 24433 net.cpp:164] Top shape: 1 300 17 17 (86700)
I0531 10:24:55.579778 24433 layer_factory.hpp:76] Creating layer drop
I0531 10:24:55.579792 24433 net.cpp:111] Creating Layer drop
I0531 10:24:55.579802 24433 net.cpp:478] drop <- conv4
I0531 10:24:55.579815 24433 net.cpp:420] drop -> conv4 (in-place)
I0531 10:24:55.579831 24433 net.cpp:156] Setting up drop
I0531 10:24:55.579843 24433 net.cpp:164] Top shape: 1 300 17 17 (86700)
I0531 10:24:55.579854 24433 layer_factory.hpp:76] Creating layer score_classes
I0531 10:24:55.579870 24433 net.cpp:111] Creating Layer score_classes
I0531 10:24:55.579881 24433 net.cpp:478] score_classes <- conv4
I0531 10:24:55.579895 24433 net.cpp:434] score_classes -> score_classes
I0531 10:24:55.580003 24433 net.cpp:156] Setting up score_classes
I0531 10:24:55.580034 24433 net.cpp:164] Top shape: 1 2 17 17 (578)
I0531 10:24:55.580070 24433 layer_factory.hpp:76] Creating layer upscore
I0531 10:24:55.580091 24433 net.cpp:111] Creating Layer upscore
I0531 10:24:55.580102 24433 net.cpp:478] upscore <- score_classes
I0531 10:24:55.580118 24433 net.cpp:434] upscore -> upscore
I0531 10:24:55.581007 24433 net.cpp:156] Setting up upscore
I0531 10:24:55.581027 24433 net.cpp:164] Top shape: 1 2 271 271 (146882)
I0531 10:24:55.581043 24433 layer_factory.hpp:76] Creating layer score
I0531 10:24:55.581058 24433 net.cpp:111] Creating Layer score
I0531 10:24:55.581068 24433 net.cpp:478] score <- upscore
I0531 10:24:55.581079 24433 net.cpp:478] score <- data_data_0_split_1
I0531 10:24:55.581091 24433 net.cpp:434] score -> score
I0531 10:24:55.581140 24433 net.cpp:156] Setting up score
I0531 10:24:55.581153 24433 net.cpp:164] Top shape: 1 2 256 256 (131072)
I0531 10:24:55.581163 24433 layer_factory.hpp:76] Creating layer score_score_0_split
I0531 10:24:55.581176 24433 net.cpp:111] Creating Layer score_score_0_split
I0531 10:24:55.581187 24433 net.cpp:478] score_score_0_split <- score
I0531 10:24:55.581202 24433 net.cpp:434] score_score_0_split -> score_score_0_split_0
I0531 10:24:55.581217 24433 net.cpp:434] score_score_0_split -> score_score_0_split_1
I0531 10:24:55.581234 24433 net.cpp:156] Setting up score_score_0_split
I0531 10:24:55.581248 24433 net.cpp:164] Top shape: 1 2 256 256 (131072)
I0531 10:24:55.581259 24433 net.cpp:164] Top shape: 1 2 256 256 (131072)
I0531 10:24:55.581269 24433 layer_factory.hpp:76] Creating layer loss
I0531 10:24:55.581282 24433 net.cpp:111] Creating Layer loss
I0531 10:24:55.581292 24433 net.cpp:478] loss <- score_score_0_split_0
I0531 10:24:55.581303 24433 net.cpp:478] loss <- label_label_0_split_0
I0531 10:24:55.581315 24433 net.cpp:434] loss -> loss
I0531 10:24:55.581332 24433 layer_factory.hpp:76] Creating layer loss
…
